model/cifar_net.pth (torch, 9851 bytes, 4 tensors)

fc1.weight f4 [3, 674]
00000000: f957 c3bb d39a 133d dcc4 7d3c 512d bfb9
00000010: d106 90bb 87ed 133d ff61 163d 451d 563c
00000020: 16fb 073d 2917 973c c2ee dabc 17b8 22bc
00000030: 7dfe e53c 0799 ae3c e109 6cbb c592 b33c
00000040: e682 87bc 7665 d53c 44de cfbc b496 123b
00000050: 072b 283c 776f 1b3d 29a2 3ebc 5122 7abc
00000060: 7de7 113d 7262 9f3c 904f 3a3c 7bd1 013d
00000070: 148f 14bd 9d2f 30bc 0682 d23a d9ff 9d3c
00000080: 1e59 15bb 593e 953c 88e5 703c d61c ad3c
00000090: f13e 0d3c e929 77bc 9074 c93c 6799 803c
000000a0: 34a6 cbbc c6e1 fbbc 7e4f 78bc b55e ef3c
000000b0: fa06 9dbc c341 973c 8043 893b f76e 31bc
000000c0: 146f 033d 932f efbc f6b6 e2bb 1508 13bd
000000d0: 32ee 60bc ce66 92bc ad84 9a3c a2af 5ebc
000000e0: a1f3 f4bb 8103 19bd 797a 013d c67d c03c
000000f0: acd0 17bd 59fc 23bc a1f8 17bd b57d d8bb
00000100: 1e50 15bc 0a4c 1bbd 6246 d0bc ff7f 11bd
00000110: a333 22bc 8590 7b3a ddf1 f0bc 4de4 1a3d
00000120: 7dad 1d3d 1b80 debb 5d0c f7bc 7936 55bb
00000130: b6ed b4bc 9306 b93c 7dfa 253a 66c7 19bc
00000140: aa27 45bc 0fa3 bf3b 3956 d63c 648d 42bc
00000150: c8e7 8b3c 8abe 1d3d 609a 02bd ccb6 2c3c
00000160: 2008 a43c 3ef4 e3bb 1c72 003d 4a0d e43a
00000170: b2b5 663c e28f 0dbd 4822 083c 12f5 fd3c
00000180: 5bb5 0c3b 10d1 4dba 5e8a 8dbc 7722 bb3a
00000190: 08e0 d43c c124 6dbc 4d11 11bd 8b39 c23b
000001a0: fd17 fdbc a2da 5c3b cc4a 3a3c b7be 333b
000001b0: cc3b 69bc 261f c43b 8cea b6bb 07f2 f23c
000001c0: e0cf 003d 155e 1abd 7c78 173c 4062 e5bc
000001d0: 165f 0bbb c6bf 0fbd 208e e33c bc72 07bd
000001e0: c0a9 8ebc 3612 b13c d9b2 99bc 2a01 9f3c
000001f0: f2c8 133d a7bd 03bd 3fe8 a73c adc4 21bc
00000200: 220e a6b9 da85 16bd 0931 efbc 0d85 a8bc
00000210: 0432 ce3c 806b 01bc 5197 cfbb 29be 073c
00000220: 6afe 9b3b ff0f 7e3c 3281 ca3c 9c80 fb3c
00000230: 16cc 00bd 2c48 d83b 3611 7ebc d7ab 023d
00000240: 3fd7 58bc ed16 a2bc 5700 07bc 5962 83bb
00000250: 8c32 033d b152 b9bc 2067 ec3c 889c f73c
00000260: 9127 a3bc aa4d d7bc a45f 80bc 5f37 dbbb
00000270: e940 eebc 0f75 ce3a c8ae a83c e567 833c
00000280: 911c 493c 8bdd d5bc ea94 58bc 98cd 64bc
00000290: bd62 9a3c 5252 a53b 78d6 413b d132 b03c
000002a0: 82f0 d3bb 2eb4 173d bc86 0fbd 926a 30bc
000002b0: f74a 543c df71 febc 4af1 8dbc 0af7 e93c
000002c0: 1835 803b b059 02bd 8dcb 0bbd 7bc4 c3bc
000002d0: a1d7 a2bc f56b 0ebd ae1a ce3c 8a9d 93bc
000002e0: 9670 5f3a cddb eebc 6b87 9eba dabb 43bb
000002f0: cea1 6ebc e355 803b b2fb df3c 5743 0cbb
00000300: dc26 d53c a4c3 d0bb bb3a a13b 0a8d 503c
00000310: 3c2d 18bd 266b 0d3d d317 033d ac25 3bbc
00000320: ff8f bfbb 0991 3abc da66 b33c 8616 99bc
00000330: 237a fbbc e546 2f3b 7b1e d3bc a08c 10bd
00000340: 845a afbc 8f57 343c 526d 6f3c 851d cc3b
00000350: 5b4e 163b c900 0fbd a1e5 82bc 35c6 81bb
00000360: 259f cdbb 968e 0e3d b708 023d 5c76 5a3c
00000370: 1dbb a1ba 643d ccbc 0a93 c5bc 2d28 d93c
00000380: 1804 eebc 6251 8a3c 561a 1d3c 8437 e53b
00000390: d910 e7ba 8eef 7e3c 67b5 ecbc ede3 d9bc
000003a0: a7dc b73c 16c2 9dbc 8d22 863c 7b4f 0dbc
000003b0: dc04 29bb cb9c 073d 98a6 0e3d d592 44bb
000003c0: c45e a03c 9614 07bd c4df efbc 3645 41bc
000003d0: 6422 30bb 6570 fabc f27f 39bc 606e e5bb
000003e0: 9224 21bc dd17 bb3c e857 c03c d3b5 be3c
000003f0: 0162 e7bc b1b9 a03c b112 73bc b70a eebb
-0.005961415 0.036036324 0.015488829 -0.00036464122 -0.004395344 0.036115196 0.03671455 0.013068502
0.03319844 0.01844366 -0.026725177 -0.009931586 0.028075451 0.021313203 -0.003601663 0.021920571
-0.01654191 0.026049357 -0.02537454 0.0022367658 0.010264165 0.037948098 -0.011635342 -0.015266971
0.035621155 0.019456122 0.011371508 0.031693917 -0.036269262 -0.010753539 0.0016060479 0.019287037
-0.0022788714 0.018218206 0.014703162 0.021131914 0.008620963 -0.015085676 0.024591714 0.015698148
-0.024859525 -0.030747306 -0.015155671 0.029219965 -0.019168366 0.018463975 0.004188955 -0.010829679
0.032088354 -0.02919749 -0.0069187833 -0.03589638 -0.013728665 -0.017871287 0.018862093 -0.013591679
-0.007475332 -0.037356857 0.03161094 0.023497473 -0.03706424 -0.010008895 -0.037102345 -0.0066067823
-0.00911334 -0.037914313 -0.025424186 -0.035522457 -0.009900006 0.0009596425 -0.029412204 0.03781538
0.03849553 -0.0067901737 -0.030157262 -0.003253369 -0.022086006 0.022586143 0.0006331576 -0.009385919
-0.012033382 0.0058482955 0.026164161 -0.01187453 0.017078295 0.03851179 -0.031885505 0.010541629
0.020023406 -0.006956606 0.031358823 0.001739898 0.0140814055 -0.034561045 0.008308955 0.031000648
0.00214704 -0.0007851282 -0.017277893 0.0014277239 0.025985733 -0.014474095 -0.03541689 0.00592727
-0.030895228 0.0033699651 0.011370372 0.0027426907 -0.014235448 0.0059851585 -0.0055821594 0.029656423
0.031448245 -0.03768738 0.009245034 -0.02800095 -0.0021266392 -0.035095 0.027777731 -0.033068404
-0.017414927 0.021615129 -0.018762039 0.019409735 0.03608031 -0.03216329 0.020496486 -0.009873551
-0.00031672517 -0.036748745 -0.029198186 -0.020571256 0.025170334 -0.007899165 -0.006335177 0.008285084
0.004760553 0.015506743 0.024719808 0.030700974 -0.03144463 0.0066004004 -0.015507033 0.03190216
-0.013234912 -0.019786322 -0.008239827 -0.0040095267 0.032030627 -0.022622438 0.028857768 0.030226007
-0.019916328 -0.02628215 -0.015670605 -0.0066899504 -0.029083686 0.0015751439 0.020591155 0.016040752
0.012274877 -0.026106616 -0.013219098 -0.013965033 0.01884591 0.0050452137 0.0029577296 0.021508606
-0.0064678797 0.037037067 -0.035040602 -0.010767596 0.012957326 -0.031060157 -0.01732697 0.02856018
0.0039125793 -0.031823814 -0.034129668 -0.0238974 -0.01987821 -0.034770925 0.025159206 -0.018019456
0.00085235515 -0.029157544 -0.0012094801 -0.0029866607 -0.014564944 0.0039164885 0.027341697 -0.0021402442
0.026019506 -0.0063709784 0.0049203313 0.012728939 -0.037152514 0.034526013 0.032005142 -0.011422556
-0.005846023 -0.011387118 0.02189963 -0.018687498 -0.030697888 0.0026745137 -0.02577137 -0.03529036
-0.021405466 0.011007204 0.014613466 0.006229105 0.0022934887 -0.03491286 -0.015978636 -0.0039603957
-0.006275075 0.03480395 0.031746592 0.013333883 -0.0012339089 -0.024931617 -0.024117965 0.026508415
-0.029054686 0.01688451 0.0095887985 0.0069951434 -0.0017628922 0.015560044 -0.028895093 -0.026597941
0.022444082 -0.019257586 0.016373897 -0.008624907 -0.002579025 0.033108514 0.034826845 -0.0029994745
0.019576438 -0.032978617 -0.029281504 -0.011796286 -0.0026875967 -0.030571172 -0.011322008 -0.007001683
-0.009835379 0.022838527 0.023479417 0.02328006 -0.028244974 0.019619795 -0.014835999 -0.007264461

fc1.bias f4 [3]
00000000: a44b c53d e225 18bf 5556 29bf
0.09633568 -0.59432805 -0.6614736

fc2.weight f4 [5, 3]
00000000: 2dfb d73e 3409 023f 8ae0 9bbe 64c2 86be
00000010: fe23 2cbd c122 383e d090 f63e 0c38 bdbe
00000020: ac56 023f 7282 623e 763c 83be 5f26 793e
00000030: 1806 cc3d e2d6 49bf ee78 64bf
0.4218382 0.5079529 -0.30444747 -0.26320183 -0.042026512 0.17982008 0.48157358 -0.36956823
0.509135 0.22120073 -0.25632066 0.24331044 0.099621 -0.7884351 -0.89247024

fc2.bias f4 [5]
00000000: c84d 993d 958e b63e 17c9 233e af42 0abf
00000010: 854a c93f
0.07485539 0.35655656 0.15994678 -0.54008 1.5725867
