model/cifar_net.pth (torch, 9851 bytes, 4 tensors)

fc1.weight f4 [3, 674]
00000000: 3b4d 20bd 1bbc 9b3c 7113 43bc a3bd 3f3c
00000010: 3058 02bd cccc 0b3d 5add 963b f37c 3bbd
00000020: 1203 33bd 1987 a53c 12b9 f7bc fca4 83bc
00000030: 3a1d 27bd 6ac8 0bbd d2e1 dbbc d7e0 07bb
00000040: 244c a63c 5e50 16bc 375d 6cbc cc7b b9bc
00000050: abdf c6bc 78e5 023c aff1 a13c a8a6 12bc
00000060: 3bd2 35bc 48e1 b33c 8546 16bd 10a5 99bc
00000070: 1311 3bbb 777e 3b3c 4718 d3bc 2169 1c3c
00000080: dbb4 91bc 2a0b 3abc 38db 0a3d 5c5d 023c
00000090: 8e09 a03c 8b9e 513c 1cc5 50bc 8a83 4abc
000000a0: eff1 aa3b 985a a33b 9bf2 bbbc 4bed 9e3c
000000b0: bf3e 873b 373b d3bb d0d3 0dbd 04f9 db3c
000000c0: 6cee 5bba 1cc5 a33b f822 103a 857c 91bc
000000d0: 89af 9e3c 96b9 51bc 7ece 72bb e0f5 eb3c
000000e0: cccf f3bc 27fd 26bd 4836 d13a eca2 013d
000000f0: 3da1 30bc b418 44bb f33c 06bd fed1 33bb
00000100: bfd8 db3b 6ee6 a4ba e928 213c 6826 80bc
00000110: 004a 1db9 52fe c43a 74a3 ecbb 7f19 453c
00000120: 84a3 793c 3687 0a3b 9646 8fbc 76fd bb3c
00000130: 3e75 dc3c d358 883c 1191 833c ebf0 2cb9
00000140: d4f1 ddbc 14aa 7bbc b7e6 ec3c c9a8 f73b
00000150: 4331 983b cc53 dbbb 8d12 0ebd 6488 13bc
00000160: b685 42bd 24ee 53bd 6a7c 083c cfbd f4bc
00000170: 8126 40bc 62ea f7bb c775 e8bc 8e52 08bc
00000180: c1c7 12bd 6405 643c ed67 a2bc 532d 08ba
00000190: 74a2 cc3c 0827 a93c 6053 d7bc 1f6f fbbc
000001a0: 1ee6 563c b204 0dbd c944 b7ba 39e2 93bc
000001b0: 6365 903c 4c56 48bc 6762 073d 6feb 06bd
000001c0: 25ca 953c 1d31 81bc 886a 03bd ae3b 6cbc
000001d0: bd05 153d 2c76 ae3a 155f 9fbc a493 27bd
000001e0: 29ed e7bc 2299 93bc d0a6 9abc 665f 953c
000001f0: 5669 043c 1286 f3bb 86e9 14bd d179 0b3d
00000200: 2040 58bc 1ba6 bebc 84d4 d2bc e540 06bc
00000210: 5a42 d0bc 52fd eabc cc19 09bd 7fe3 96bc
00000220: f053 22bd 5f2c 39ba 8906 733c 6e7d f73c
00000230: 2b50 6fbc 2817 c13b f886 46bd f4ee 413c
00000240: 28d1 a6bc 4550 be3b 4069 083c 206e a23c
00000250: 5978 1ebd c0de bbbb af77 c83c 7055 e7bc
00000260: cceb a7bb 3606 aabc 86da 6f3c 5410 4cbc
00000270: 6d54 063d e22d adbc a7af 14bd 2193 08bc
00000280: b2a9 f13c 9ec2 dcbb a99c 733c 91f8 a6bc
00000290: c7c4 2d3c 8776 4abd f1c6 c3bb 000f a4bc
000002a0: c911 963b 005d b93b 9db7 c3ba d83f 9dbc
000002b0: ee41 423b 6577 96bc bbcc b1bc 9905 473c
000002c0: b709 51bc 4699 8a3c df01 25bc 29d8 103b
000002d0: b3a8 013d ef10 15bd 969e b9bc 1d00 87bb
000002e0: b353 8c3c b854 d9bb 5387 a33c db36 14bd
000002f0: 11a4 433c 884b bb3b 98e0 8d3c c792 1aba
00000300: 6514 d5bc b8ce b33c 8f3c 14bd 540f c53c
00000310: 7203 92ba 5480 16bd 1cda a63c d23c 6839
00000320: a0df b5bc a957 21bc 1af1 8ebc bf74 8fbc
00000330: f8dd 7f3b f7b8 13bd 154a 063b 2482 36bd
00000340: 9036 bebc cbdb f83c 0c68 a9bc b4a6 a4bc
00000350: 5740 fdbc 8402 0b3d 52d5 9c3c adf1 dcbc
00000360: 9113 babc b16a 08bd 1fa7 10bd 7994 d93c
00000370: ecf5 053b 780e 36bd 8af4 a03c 5b7f f03c
00000380: 51b8 e1bc b313 873c 0515 8d3c 4da8 b13c
00000390: 9c99 873c 95df 583c d310 953c be2a 99bb
000003a0: 6699 21bd 83b3 c1bc b3db 0b3c 7374 763c
000003b0: d2e1 11bc c4f5 dabc dcc3 b6bc 9d6c 913c
000003c0: 1af1 1dbd 3a83 163d c507 32bd 444f d0bc
000003d0: 8f54 34bd 2433 6d3a 24df 033c c594 a03c
000003e0: 1333 b9bb 693e e2ba 341a b3bc bfb9 963b
000003f0: fe64 50bc 814e 6e3c 6c82 143c 19e2 44bd
-0.039136153 0.019010594 -0.011906491 0.011702928 -0.031822383 0.034130856 0.004604024 -0.045773458
-0.0437041 0.020206021 -0.030239616 -0.016069882 -0.040799357 -0.034126677 -0.026841078 -0.002073338
0.020299979 -0.0091744345 -0.014426521 -0.022642039 -0.024276575 0.00798928 0.019768564 -0.008950867
-0.011097486 0.021958008 -0.036688346 -0.018755466 -0.0028544113 0.011443726 -0.025768412 0.009546549
-0.017786434 -0.011355201 0.03390047 0.007956829 0.019535806 0.012794147 -0.012742307 -0.012360463
0.005216829 0.004985165 -0.022942832 0.01940026 0.004127353 -0.006446268 -0.03462583 0.026852138
-0.00083897146 0.0049978625 0.0005498375 -0.01775957 0.019370811 -0.012800595 -0.0037049348 0.028803766
-0.029762171 -0.04076877 0.0015961612 0.031649515 -0.01078063 -0.002992195 -0.03277297 -0.0027438398
0.0067091878 -0.001258088 0.009836414 -0.015643314 -0.00015000254 0.0015029407 -0.0072216336 0.0120300045
0.015236739 0.002113772 -0.017489713 0.022948008 0.026911374 0.016643917 0.016060384 -0.00016492947
-0.027092852 -0.015360374 0.028918607 0.0075579626 0.0046445443 -0.006693339 -0.03468566 -0.009004686
-0.047490798 -0.05174078 0.008330444 -0.029875664 -0.01172793 -0.0075657824 -0.028376473 -0.008320464
-0.03583503 0.013917301 -0.019824946 -0.0005194742 0.024979807 0.020648494 -0.026284873 -0.030692635
0.013116388 -0.034428306 -0.0013982292 -0.018052207 0.01762647 -0.012227606 0.03305283 -0.03293937
0.018284867 -0.01577049 -0.032084018 -0.014418526 0.036382426 0.0013310364 -0.019454518 -0.040912285
-0.028311329 -0.018017355 -0.01887837 0.018233966 0.008081755 -0.007431754 -0.036355518 0.03405172
-0.013198882 -0.023272565 -0.025736101 -0.008194183 -0.025422264 -0.028685246 -0.033471867 -0.018419025
-0.03963083 -0.0007063802 0.014833101 0.030211177 -0.014606516 0.005892653 -0.04846856 0.011836756
-0.020363405 0.0058079087 0.008325875 0.019827902 -0.03868899 -0.005733341 0.024471132 -0.028238982
-0.0051245447 -0.020754915 0.014639502 -0.012455065 0.03279536 -0.021140043 -0.036300328 -0.0083358595
0.029499862 -0.0067370674 0.014868894 -0.020382198 0.010605997 -0.049429443 -0.0059746434 -0.020026684
0.004579757 0.0056568384 -0.001493204 -0.019195482 0.0029641348 -0.018367479 -0.021704068 0.012147331
-0.012758664 0.01691879 -0.010071247 0.0022101498 0.031655025 -0.036393102 -0.022658627 -0.0041198866
0.017129755 -0.0066324137 0.019961989 -0.036185127 0.011940972 0.005715791 0.017319009 -0.00058965053
-0.026010701 0.021949157 -0.036190566 0.02405516 -0.0011139943 -0.036743477 0.020367675 0.00022147901
-0.02220136 -0.00984756 -0.01744895 -0.017511724 0.0039042216 -0.036065068 0.0020490934 -0.044557706
-0.023219377 0.030378243 -0.020679496 -0.020099021 -0.030914469 0.033937946 0.019144688 -0.026970709
-0.022714408 -0.033304874 -0.03531563 0.026560055 0.002044077 -0.044447392 0.019647855 0.029357603
-0.02755371 0.016488886 0.017221937 0.021686697 0.016552739 0.0132369 0.018196499 -0.0046742847
-0.039452933 -0.023645168 0.008536267 0.015042412 -0.008903937 -0.026728518 -0.02231019 0.017751986
-0.03856001 0.03674624 -0.04346444 -0.025428422 -0.044025954 0.0009048453 0.008048806 0.019602189
-0.0056518405 -0.0017261031 -0.02186308 0.0045997794 -0.012719391 0.014545084 0.009064298 -0.048067186

fc1.bias f4 [3]
00000000: 31b8 08bf 830a d73e 3c4a 493f
-0.53406054 0.42000207 0.786289

fc2.weight f4 [5, 3]
00000000: 9c31 75be 1ef2 f23d db9b fabe 1037 63be
00000010: eddb 8a3e 7de6 4c3e 174d f7bd 438e afbe
00000020: 59e5 c63d 5306 ff3e e044 d83e eaa0 093f
00000030: 1424 2bbf 963a 0d3f 2bfb 803f
-0.23944706 0.118625864 -0.48947033 -0.22188973 0.27120915 0.200098 -0.120752506 -0.34288225
0.09711713 0.49809512 0.42240047 0.5376116 -0.66851926 0.5516752 1.007665

fc2.bias f4 [5]
00000000: 8aca eb3e 6b3b 9d3e 470e d2be e721 82bd
00000010: 54b3 113f
0.46052963 0.30709395 -0.41026518 -0.063541226 0.5691426
